model.npy (npy, 49280 bytes, 1 tensors)

array f8 [2048, 3]
000000 00 00 00 60 9f 5d b5 3f 00 00 00 60 80 c1 b0 bf
       0.08345981687307358 -0.06545259803533554
000010 00 00 00 20 e5 a7 a4 bf 00 00 00 c0 1c 95 b0 3f
       -0.04034343734383583 0.06477527320384979
000020 00 00 00 00 31 52 a4 bf 00 00 00 80 5e 4c a4 3f
       -0.0396895706653595 0.03964515030384064
000030 00 00 00 20 95 08 d0 3f 00 00 00 40 45 bc a8 bf
       0.2505238354206085 -0.04831138998270035
000040 00 00 00 80 d0 21 9e 3f 00 00 00 a0 b3 76 a3 3f
       0.029425866901874542 0.03801499679684639
000050 00 00 00 60 69 30 b4 bf 00 00 00 60 1e da 9d 3f
       -0.0788637027144432 0.029152369126677513
000060 00 00 00 20 2c 5f b2 bf 00 00 00 00 05 d8 94 3f
       -0.07176471501588821 0.02035529911518097
000070 00 00 00 60 94 56 7a 3f 00 00 00 20 43 fb b8 3f
       0.006430224981158972 0.09758395701646805
000080 00 00 00 80 12 95 a9 bf 00 00 00 c0 7d 27 9b bf
       -0.04996545612812042 -0.0265178345143795
000090 00 00 00 80 a0 41 b2 3f 00 00 00 80 c8 8e 6f bf
       0.07131388783454895 -0.0038522640243172646
0000a0 00 00 00 80 9b d6 a3 bf 00 00 00 80 f9 63 cc 3f
       -0.03874669969081879 0.22180098295211792
0000b0 00 00 00 40 f4 a5 9c bf 00 00 00 80 10 ed a6 3f
       -0.027976814657449722 0.04477740824222565
0000c0 00 00 00 60 5b 25 b6 3f 00 00 00 40 9c 0c b0 bf
       0.08650752156972885 -0.06269241869449615
0000d0 00 00 00 60 23 50 c5 bf 00 00 00 e0 e8 10 a7 3f
       -0.16650812327861786 0.045050885528326035
0000e0 00 00 00 60 80 c1 b0 bf 00 00 00 20 ca 14 cd bf
       -0.06545259803533554 -0.22719694674015045
0000f0 00 00 00 c0 e9 56 91 bf 00 00 00 60 80 c1 b0 bf
       -0.016933109611272812 -0.06545259803533554
000100 00 00 00 00 c8 41 ae bf 00 00 00 c0 92 5e d5 bf
       -0.05909562110900879 -0.33389729261398315
000110 00 00 00 a0 14 0c 96 3f 00 00 00 a0 1c b4 a1 3f
       0.021530458703637123 0.03457726910710335
000120 00 00 00 c0 38 7d d3 bf 00 00 00 c0 50 e4 90 3f
       -0.304517924785614 0.016495954245328903
000130 00 00 00 40 d6 42 a2 3f 00 00 00 c0 b0 58 aa 3f
       0.035666175186634064 0.051457904279232025
000140 00 00 00 e0 31 b9 b0 bf 00 00 00 a0 91 f5 d1 3f
       -0.06532584875822067 0.28061333298683167
000150 00 00 00 c0 ee 4d d1 bf 00 00 00 60 57 eb 91 3f
       -0.2703816294670105 0.017499318346381187
000160 00 00 00 e0 4a 1f 84 bf 00 00 00 c0 27 63 ce bf
       -0.009825310669839382 -0.23740097880363464
000170 00 00 00 e0 e7 ed 92 bf 00 00 00 40 a8 69 8a bf
       -0.01848566345870495 -0.012896837666630745
000180 00 00 00 20 83 f9 af 3f 00 00 00 80 30 6c 70 bf
       0.06245050206780434 -0.00400942750275135
000190 00 00 00 40 80 e2 a3 bf 00 00 00 80 d7 aa bc bf
       -0.03883744031190872 -0.1119818389415741
0001a0 00 00 00 c0 d6 cb 8f 3f 00 00 00 a0 70 38 9c bf
       0.015525510534644127 -0.027559051290154457
0001b0 00 00 00 20 e4 fe b8 3f 00 00 00 60 80 c1 b0 bf
       0.09763932973146439 -0.06545259803533554
0001c0 00 00 00 00 66 04 c4 bf 00 00 00 e0 5c 38 c1 bf
       -0.15638422966003418 -0.13453255593776703
0001d0 00 00 00 40 80 c1 b0 bf 00 00 00 a0 29 3c 91 3f
       -0.06545259058475494 0.016831064596772194
0001e0 00 00 00 80 54 40 a2 bf 00 00 00 a0 1b 2f b2 bf
       -0.03564704954624176 -0.07103130966424942
0001f0 00 00 00 a0 55 29 8e bf 00 00 00 c0 7d 69 c2 3f
       -0.014727276749908924 0.143844336271286
000200 00 00 00 a0 00 31 90 bf 00 00 00 a0 b0 5f a7 3f
       -0.01581192947924137 0.04565193131566048
000210 00 00 00 00 e0 7a a3 bf 00 00 00 60 80 c1 b0 bf
       -0.038046836853027344 -0.06545259803533554
000220 00 00 00 40 e3 23 b6 bf 00 00 00 60 59 51 94 3f
       -0.08648510277271271 0.019841572269797325
000230 00 00 00 80 a2 fa a4 bf 00 00 00 60 16 eb a3 bf
       -0.0409746915102005 -0.038902949541807175
000240 00 00 00 80 5e 85 a5 3f 00 00 00 60 80 c1 b0 bf
       0.04203315079212189 -0.06545259803533554
000250 00 00 00 c0 8d 67 c1 bf 00 00 00 40 e7 fa c1 3f
       -0.13597270846366882 0.14046946167945862
000260 00 00 00 00 89 b5 a0 3f 00 00 00 e0 76 5d 99 bf
       0.032635003328323364 -0.024770600721240044
000270 00 00 00 80 20 e0 c7 bf 00 00 00 c0 62 5a 95 bf
       -0.1865273118019104 -0.020852606743574142
000280 00 00 00 00 16 dd a8 bf 00 00 00 00 1b cb c5 3f
       -0.04856175184249878 0.17026078701019287
000290 00 00 00 60 2f b3 a5 3f 00 00 00 00 9e 4e 92 bf
       0.04238269850611687 -0.017878025770187378
0002a0 00 00 00 60 b0 27 d3 bf 00 00 00 00 69 53 98 3f
       -0.29929742217063904 0.02375568449497223
0002b0 00 00 00 a0 59 10 84 3f 00 00 00 00 8f ef c7 3f
       0.009796810336411 0.18699824810028076
0002c0 00 00 00 20 29 74 a6 bf 00 00 00 20 26 11 a3 3f
       -0.043854985386133194 0.03724021092057228
0002d0 00 00 00 00 3c f4 b7 3f 00 00 00 60 80 c1 b0 bf
       0.09357047080993652 -0.06545259803533554
0002e0 00 00 00 20 71 f8 c2 3f 00 00 00 c0 17 1e bc 3f
       0.14820684492588043 0.10983417928218842
0002f0 00 00 00 40 cc 70 b7 bf 00 00 00 c0 b4 be 51 bf
       -0.09156490862369537 -0.0010830655228346586
000300 00 00 00 00 11 06 a5 3f 00 00 00 20 d1 66 ba bf
       0.04106190800666809 -0.10313136130571365
000310 00 00 00 40 73 f3 c6 bf 00 00 00 e0 b9 85 c0 3f
       -0.17930451035499573 0.12908099591732025
000320 00 00 00 40 80 c1 b0 bf 00 00 00 c0 64 41 a1 3f
       -0.06545259058475494 0.03370203822851181
000330 00 00 00 20 b5 70 b2 3f 00 00 00 c0 c0 3d af bf
       0.07203228026628494 -0.06101801246404648
000340 00 00 00 40 80 1d c3 bf 00 00 00 c0 ef 56 bd bf
       -0.1493377983570099 -0.1146077960729599
000350 00 00 00 40 64 64 9c 3f 00 00 00 40 45 da 98 3f
       0.027726713567972183 0.024270135909318924
000360 00 00 00 c0 ed cb b9 3f 00 00 00 60 80 c1 b0 bf
       0.10076795518398285 -0.06545259803533554
000370 00 00 00 40 02 2a c5 bf 00 00 00 a0 8e 64 85 3f
       -0.1653445065021515 0.010445703752338886
000380 00 00 00 00 d5 64 af bf 00 00 00 a0 b8 55 b0 bf
       -0.06131616234779358 -0.06380800157785416
000390 00 00 00 e0 64 f0 a6 3f 00 00 00 60 80 c1 b0 bf
       0.04480281099677086 -0.06545259803533554
0003a0 00 00 00 60 ba fc ce 3f 00 00 00 80 08 03 b1 3f
       0.24208764731884003 0.06645253300666809
0003b0 00 00 00 c0 33 77 ae bf 00 00 00 c0 08 f1 bd 3f
       -0.05950319021940231 0.11695913970470428
0003c0 00 00 00 80 86 96 9c 3f 00 00 00 40 39 44 b3 bf
       0.027917958796024323 -0.07525976002216339
0003d0 00 00 00 00 c3 99 50 3f 00 00 00 80 84 29 93 3f
       0.001013222150504589 0.01871306449174881
0003e0 00 00 00 00 05 d8 94 3f 00 00 00 a0 1e 66 87 bf
       0.02035529911518097 -0.011425246484577656
0003f0 00 00 00 00 93 34 a5 3f 00 00 00 00 b9 20 af bf
       0.04141673445701599 -0.060796529054641724
000400 00 00 00 00 e1 f2 c1 3f 00 00 00 c0 84 97 a6 bf
       0.14022457599639893 -0.04412474483251572
000410 00 00 00 c0 e1 85 98 bf 00 00 00 e0 8e f3 a8 bf
       -0.023948218673467636 -0.04873320087790489
000420 00 00 00 20 66 04 c5 bf 00 00 00 40 02 46 ae bf
       -0.16419674456119537 -0.05912787467241287
000430 00 00 00 a0 b8 1a 9d 3f 00 00 00 20 77 1d c0 3f
       0.028422245755791664 0.12589921057224274
000440 00 00 00 e0 4e 69 a4 3f 00 00 00 e0 76 5d 99 3f
       0.03986593708395958 0.024770600721240044
000450 00 00 00 20 6d 68 d0 bf 00 00 00 00 8c ad a5 3f
       -0.25637367367744446 0.04233968257904053
000460 00 00 00 c0 9f 8c 41 3f 00 00 00 60 96 0a d0 3f
       0.0005355625180527568 0.2506462037563324
000470 00 00 00 60 80 c1 b0 bf 00 00 00 c0 90 46 67 bf
       -0.06545259803533554 -0.00284126540645957
000480 00 00 00 40 0f 73 a8 3f 00 00 00 60 80 c1 b0 bf
       0.04775283485651016 -0.06545259803533554
000490 00 00 00 80 01 25 81 3f 00 00 00 40 f7 ef b3 bf
       0.008371364325284958 -0.07788033783435822
0004a0 00 00 00 00 a1 68 9d bf 00 00 00 a0 7f 8a a7 bf
       -0.02871944010257721 -0.04597853496670723
0004b0 00 00 00 40 5d 0b d4 bf 00 00 00 c0 96 ec 83 bf
       -0.3131936192512512 -0.009728601202368736
0004c0 00 00 00 00 1f b4 80 bf 00 00 00 00 b9 9c 8e bf
       -0.008156053721904755 -0.014947362244129181
0004d0 00 00 00 60 80 c1 b0 bf 00 00 00 00 0a 7c b0 3f
       -0.06545259803533554 0.06439268589019775
0004e0 00 00 00 00 49 a4 a9 3f 00 00 00 40 f4 d6 ab bf
       0.0500815212726593 -0.054374344646930695
0004f0 00 00 00 80 6d 73 a5 bf 00 00 00 c0 80 78 a9 3f
       -0.0418962687253952 0.049747489392757416
000500 00 00 00 40 80 c1 b0 bf 00 00 00 00 4f f8 b4 bf
       -0.06545259058475494 -0.08191388845443726
000510 00 00 00 e0 02 36 d3 3f 00 00 00 40 77 55 b0 bf
       0.3001715838909149 -0.06380410492420197
000520 00 00 00 00 fe 12 22 3f 00 00 00 40 52 9e c3 3f
       0.00013789511285722256 0.15326908230781555
000530 00 00 00 e0 7c e0 88 3f 00 00 00 c0 dd 37 9e 3f
       0.01214692648500204 0.02950998768210411
000540 00 00 00 c0 b7 2d 9c bf 00 00 00 60 b1 d6 a9 bf
       -0.027518149465322495 -0.05046610161662102
000550 00 00 00 e0 9d 27 ba bf 00 00 00 80 8c fa a9 3f
       -0.10216700285673141 0.05073966085910797
000560 00 00 00 e0 dc ec b3 bf 00 00 00 00 9e 27 ba 3f
       -0.07783298939466476 0.10216701030731201
000570 00 00 00 00 c0 dd 85 3f 00 00 00 20 fa cf b5 bf
       0.010676860809326172 -0.08520472794771194
000580 00 00 00 00 ee 13 c6 3f 00 00 00 e0 5d 44 b2 3f
       0.17248320579528809 0.07135569304227829
000590 00 00 00 c0 4e 72 ad bf 00 00 00 80 a2 d8 b6 bf
       -0.05751272290945053 -0.089243084192276
0005a0 00 00 00 00 a9 48 c5 bf 00 00 00 60 80 c1 b0 bf
       -0.16627991199493408 -0.06545259803533554
0005b0 00 00 00 a0 16 30 90 3f 00 00 00 40 36 6c bf bf
       0.01580844260752201 -0.12274493277072906
0005c0 00 00 00 a0 e5 fc 77 bf 00 00 00 e0 44 6e a4 bf
       -0.005856415722519159 -0.03990378603339195
0005d0 00 00 00 00 12 1c 75 3f 00 00 00 60 21 29 8d bf
       0.005153723061084747 -0.014238606207072735
0005e0 00 00 00 80 a1 e8 a6 3f 00 00 00 e0 f0 c8 b5 3f
       0.04474358260631561 0.08509736508131027
0005f0 00 00 00 40 5c 3d ad bf 00 00 00 60 5e 48 b5 3f
       -0.057108767330646515 0.08313550800085068
000600 00 00 00 00 68 6a 8d 3f 00 00 00 60 80 c1 b0 bf
       0.014363110065460205 -0.06545259803533554
000610 00 00 00 00 68 20 91 bf 00 00 00 80 50 50 c2 bf
       -0.01672518253326416 -0.14307600259780884
000620 00 00 00 e0 04 d8 94 3f 00 00 00 20 4e 8d 6a 3f
       0.02035529725253582 0.0032412076834589243
000630 00 00 00 40 e0 23 c5 bf 00 00 00 20 0f 17 97 bf
       -0.16515734791755676 -0.022548900917172432
000640 00 00 00 a0 1b 4e 75 bf 00 00 00 40 60 2b 98 3f
       -0.0052014426328241825 0.023602966219186783
000650 00 00 00 00 62 55 b0 bf 00 00 00 c0 5b 1a d3 bf
       -0.06380283832550049 -0.29848378896713257
000660 00 00 00 40 f1 4d bd 3f 00 00 00 60 80 c1 b0 bf
       0.11447055637836456 -0.06545259803533554
000670 00 00 00 60 46 dc b4 bf 00 00 00 c0 a7 13 ce 3f
       -0.08148612827062607 0.23497483134269714
000680 00 00 00 c0 ee d7 95 bf 00 00 00 40 4f 96 a4 3f
       -0.021331530064344406 0.040209271013736725
000690 00 00 00 40 d7 a7 b3 3f 00 00 00 40 e7 23 b4 bf
       0.0767797976732254 -0.07867284119129181
0006a0 00 00 00 80 d0 80 aa bf 00 00 00 60 f1 91 aa 3f
       -0.051764026284217834 0.05189470574259758
0006b0 00 00 00 80 5e 49 b0 bf 00 00 00 80 4d b8 cf 3f
       -0.06361952424049377 0.24781197309494019
0006c0 00 00 00 c0 77 7d d2 3f 00 00 00 c0 fe 24 ac bf
       0.2889079451560974 -0.054969750344753265
0006d0 00 00 00 e0 76 75 8e bf 00 00 00 a0 84 ea cf bf
       -0.014872482977807522 -0.24934442341327667
0006e0 00 00 00 40 00 eb 71 bf 00 00 00 60 e9 b1 a2 3f
       -0.004374505020678043 0.03651360794901848
0006f0 00 00 00 20 ba 54 a0 bf 00 00 00 60 80 c1 b0 bf
       -0.03189641609787941 -0.06545259803533554
000700 00 00 00 40 39 0d 77 bf 00 00 00 80 f0 e8 c9 3f
       -0.005627845413982868 0.20242124795913696
000710 00 00 00 40 19 d5 93 3f 00 00 00 80 76 da 90 bf
       0.01936759427189827 -0.01645836979150772
000720 00 00 00 00 b2 11 38 3f 00 00 00 00 bc d2 a9 bf
       0.00036726566031575203 -0.05043590068817139
000730 00 00 00 20 c6 c2 ae 3f 00 00 00 00 1d 7c 8e bf
       0.06007975712418556 -0.01488516479730606
000740 00 00 00 00 f8 40 34 3f 00 00 00 c0 b4 9b a2 bf
       0.00030904822051525116 -0.036344192922115326
000750 00 00 00 a0 bb 68 ae 3f 00 00 00 00 14 20 ab bf
       0.05939279869198799 -0.052979111671447754
000760 00 00 00 40 3f f5 a1 3f 00 00 00 20 03 d2 b0 3f
       0.03507421165704727 0.06570453196763992
000770 00 00 00 c0 39 97 bb bf 00 00 00 00 80 0d ad 3f
       -0.10777626931667328 0.056743621826171875
000780 00 00 00 80 a9 f3 72 3f 00 00 00 00 bc d2 a9 bf
       0.004626905545592308 -0.05043590068817139
000790 00 00 00 c0 63 fe b6 3f 00 00 00 e0 88 79 c0 3f
       0.08981917798519135 0.12870894372463226
0007a0 00 00 00 a0 fb cf b7 bf 00 00 00 60 4b 8d c7 bf
       -0.09301731735467911 -0.1839994639158249
0007b0 00 00 00 40 2a 1e 95 bf 00 00 00 60 80 c1 b0 bf
       -0.02062288299202919 -0.06545259803533554
0007c0 00 00 00 60 13 50 b7 3f 00 00 00 80 0e ac c1 bf
       0.09106560796499252 -0.1380632519721985
0007d0 00 00 00 40 52 de 9f bf 00 00 00 60 c3 d4 a6 3f
       -0.031121525913476944 0.044592004269361496
0007e0 00 00 00 a0 72 d0 d1 bf 00 00 00 20 ab 24 93 3f
       -0.2783476412296295 0.018694566562771797
0007f0 00 00 00 e0 1c 61 a8 bf 00 00 00 e0 d6 28 b9 3f
       -0.047615911811590195 0.09827940911054611
